Start
----------------------------------------------------------------
        Layer (type)               Output Shape         Param #
================================================================
            Conv2d-1        [100, 64, 112, 112]           9,408
       BatchNorm2d-2        [100, 64, 112, 112]             128
              ReLU-3        [100, 64, 112, 112]               0
         MaxPool2d-4          [100, 64, 56, 56]               0
            Conv2d-5          [100, 64, 56, 56]          36,864
       BatchNorm2d-6          [100, 64, 56, 56]             128
              ReLU-7          [100, 64, 56, 56]               0
            Conv2d-8          [100, 64, 56, 56]          36,864
       BatchNorm2d-9          [100, 64, 56, 56]             128
             ReLU-10          [100, 64, 56, 56]               0
       BasicBlock-11          [100, 64, 56, 56]               0
           Conv2d-12          [100, 64, 56, 56]          36,864
      BatchNorm2d-13          [100, 64, 56, 56]             128
             ReLU-14          [100, 64, 56, 56]               0
           Conv2d-15          [100, 64, 56, 56]          36,864
      BatchNorm2d-16          [100, 64, 56, 56]             128
             ReLU-17          [100, 64, 56, 56]               0
       BasicBlock-18          [100, 64, 56, 56]               0
           Conv2d-19         [100, 128, 28, 28]          73,728
      BatchNorm2d-20         [100, 128, 28, 28]             256
             ReLU-21         [100, 128, 28, 28]               0
           Conv2d-22         [100, 128, 28, 28]         147,456
      BatchNorm2d-23         [100, 128, 28, 28]             256
           Conv2d-24         [100, 128, 28, 28]           8,192
      BatchNorm2d-25         [100, 128, 28, 28]             256
             ReLU-26         [100, 128, 28, 28]               0
       BasicBlock-27         [100, 128, 28, 28]               0
           Conv2d-28         [100, 128, 28, 28]         147,456
      BatchNorm2d-29         [100, 128, 28, 28]             256
             ReLU-30         [100, 128, 28, 28]               0
           Conv2d-31         [100, 128, 28, 28]         147,456
      BatchNorm2d-32         [100, 128, 28, 28]             256
             ReLU-33         [100, 128, 28, 28]               0
       BasicBlock-34         [100, 128, 28, 28]               0
           Conv2d-35         [100, 256, 14, 14]         294,912
      BatchNorm2d-36         [100, 256, 14, 14]             512
             ReLU-37         [100, 256, 14, 14]               0
           Conv2d-38         [100, 256, 14, 14]         589,824
      BatchNorm2d-39         [100, 256, 14, 14]             512
           Conv2d-40         [100, 256, 14, 14]          32,768
      BatchNorm2d-41         [100, 256, 14, 14]             512
             ReLU-42         [100, 256, 14, 14]               0
       BasicBlock-43         [100, 256, 14, 14]               0
           Conv2d-44         [100, 256, 14, 14]         589,824
      BatchNorm2d-45         [100, 256, 14, 14]             512
             ReLU-46         [100, 256, 14, 14]               0
           Conv2d-47         [100, 256, 14, 14]         589,824
      BatchNorm2d-48         [100, 256, 14, 14]             512
             ReLU-49         [100, 256, 14, 14]               0
       BasicBlock-50         [100, 256, 14, 14]               0
           Conv2d-51           [100, 512, 7, 7]       1,179,648
      BatchNorm2d-52           [100, 512, 7, 7]           1,024
             ReLU-53           [100, 512, 7, 7]               0
           Conv2d-54           [100, 512, 7, 7]       2,359,296
      BatchNorm2d-55           [100, 512, 7, 7]           1,024
           Conv2d-56           [100, 512, 7, 7]         131,072
      BatchNorm2d-57           [100, 512, 7, 7]           1,024
             ReLU-58           [100, 512, 7, 7]               0
       BasicBlock-59           [100, 512, 7, 7]               0
           Conv2d-60           [100, 512, 7, 7]       2,359,296
      BatchNorm2d-61           [100, 512, 7, 7]           1,024
             ReLU-62           [100, 512, 7, 7]               0
           Conv2d-63           [100, 512, 7, 7]       2,359,296
      BatchNorm2d-64           [100, 512, 7, 7]           1,024
             ReLU-65           [100, 512, 7, 7]               0
       BasicBlock-66           [100, 512, 7, 7]               0
AdaptiveAvgPool2d-67           [100, 512, 1, 1]               0
           Linear-68                 [100, 256]         131,328
             ReLU-69                 [100, 256]               0
          Dropout-70                 [100, 256]               0
           Linear-71                 [100, 100]          25,700
       LogSoftmax-72                 [100, 100]               0
================================================================
Total params: 11,333,540
Trainable params: 157,028
Non-trainable params: 11,176,512
----------------------------------------------------------------
Input size (MB): 57.42
Forward/backward pass size (MB): 6279.25
Params size (MB): 43.23
Estimated Total Size (MB): 6379.91
----------------------------------------------------------------
…
