Start
----------------------------------------------------------------
        Layer (type)               Output Shape         Param #
================================================================
            Conv2d-1        [100, 64, 224, 224]           1,792
              ReLU-2        [100, 64, 224, 224]               0
            Conv2d-3        [100, 64, 224, 224]          36,928
              ReLU-4        [100, 64, 224, 224]               0
         MaxPool2d-5        [100, 64, 112, 112]               0
            Conv2d-6       [100, 128, 112, 112]          73,856
              ReLU-7       [100, 128, 112, 112]               0
            Conv2d-8       [100, 128, 112, 112]         147,584
              ReLU-9       [100, 128, 112, 112]               0
        MaxPool2d-10         [100, 128, 56, 56]               0
           Conv2d-11         [100, 256, 56, 56]         295,168
             ReLU-12         [100, 256, 56, 56]               0
           Conv2d-13         [100, 256, 56, 56]         590,080
             ReLU-14         [100, 256, 56, 56]               0
           Conv2d-15         [100, 256, 56, 56]         590,080
             ReLU-16         [100, 256, 56, 56]               0
        MaxPool2d-17         [100, 256, 28, 28]               0
           Conv2d-18         [100, 512, 28, 28]       1,180,160
             ReLU-19         [100, 512, 28, 28]               0
           Conv2d-20         [100, 512, 28, 28]       2,359,808
             ReLU-21         [100, 512, 28, 28]               0
           Conv2d-22         [100, 512, 28, 28]       2,359,808
             ReLU-23         [100, 512, 28, 28]               0
        MaxPool2d-24         [100, 512, 14, 14]               0
           Conv2d-25         [100, 512, 14, 14]       2,359,808
             ReLU-26         [100, 512, 14, 14]               0
           Conv2d-27         [100, 512, 14, 14]       2,359,808
             ReLU-28         [100, 512, 14, 14]               0
           Conv2d-29         [100, 512, 14, 14]       2,359,808
             ReLU-30         [100, 512, 14, 14]               0
        MaxPool2d-31           [100, 512, 7, 7]               0
AdaptiveAvgPool2d-32           [100, 512, 7, 7]               0
           Linear-33                [100, 4096]     102,764,544
             ReLU-34                [100, 4096]               0
          Dropout-35                [100, 4096]               0
           Linear-36                [100, 4096]      16,781,312
             ReLU-37                [100, 4096]               0
          Dropout-38                [100, 4096]               0
           Linear-39                 [100, 256]       1,048,832
             ReLU-40                 [100, 256]               0
          Dropout-41                 [100, 256]               0
           Linear-42                 [100, 100]          25,700
       LogSoftmax-43                 [100, 100]               0
================================================================
Total params: 135,335,076
Trainable params: 120,620,388
Non-trainable params: 14,714,688
----------------------------------------------------------------
Input size (MB): 57.42
Forward/backward pass size (MB): 21878.08
Params size (MB): 516.26
Estimated Total Size (MB): 22451.77
----------------------------------------------------------------
…
